sign-lang-kiosk/state_88model.pth (torch, 323788 bytes, 10 tensors)

lstm.weight_ih_l0 f4 [256, 111]
0	0xbd3bbf60	-0.045836806
1	0xbd91c09b	-0.07116815
2	0xbbaee1f2	-0.0053369934
3	0x3dab781a	0.08372517
4	0x3ddaf9b1	0.10692156
5	0xbce786c7	-0.028262509
6	0xbca1bb1f	-0.019742547
7	0xbd3d3c65	-0.046200175
8	0x3decaa6d	0.11555944
9	0x3c85fff7	0.016357405
10	0x3cfdcbcb	0.030980965
11	0x3df82bce	0.1211773
12	0xbdf883f3	-0.12134542
13	0xbd26997a	-0.04067371
14	0xbde60d63	-0.11233022
15	0x3c1bfd18	0.0095207915
16	0xbd904b58	-0.07045621
17	0xbc33036e	-0.010926111
18	0x3db76262	0.08954312
19	0xbdf7b001	-0.12094117
20	0xbdea2859	-0.11433477
21	0x3da0c264	0.07849577
22	0xbd99b55e	-0.07505296
23	0x3d883a06	0.06651692
24	0xbd9f58eb	-0.07780632
25	0xbe0cf019	-0.13763465
26	0xbdc75cef	-0.097345226
27	0xbd9487ba	-0.0725245
28	0x3d9b7ef7	0.07592576
29	0xbcacbece	-0.021087077
30	0x3d129037	0.035782065
31	0x3cff211e	0.031143721
32	0x3d9a590d	0.07536516
33	0xbbe78c3b	-0.0070662773
34	0xbd1afb84	-0.03783752
35	0x3c954f22	0.01822621
36	0xbd3ac8e4	-0.04560174
37	0x3a017dbc	0.00049396954
38	0x3de000c0	0.10937643
39	0x3d20f2fa	0.03929422
40	0xbdedcf8b	-0.11611851
41	0x3d42e28e	0.04757934
42	0xbe15ce08	-0.14629376
43	0x3c3be062	0.011467071
44	0xbe03e6bb	-0.12880985
45	0x3d5f37ae	0.05449646
46	0xbcda9c2f	-0.026685802
47	0x3dd5bc53	0.104363106
48	0x3ce5acad	0.02803644
49	0xbdc326df	-0.095288984
50	0xbc535a0f	-0.01289989
51	0xbcd91e3b	-0.026503673
52	0xbcd1ce60	-0.025611103
53	0xbd6a58b3	-0.057213496
54	0xbcb9d078	-0.022682413
55	0x3d612a5e	0.054972045
56	0x3b8bbf39	0.004264739
57	0x3db72d4e	0.08944188
58	0xbd84d93e	-0.06486748
59	0xbd687c13	-0.05675895
60	0x3dd55244	0.104160815
61	0xbd92f92f	-0.07176434
62	0xbc111ddc	-0.008857217
63	0x3e09a57c	0.13442034
64	0xbda2c169	-0.07947046
65	0x3d5cf3f0	0.053943574
66	0xbd9ac4ad	-0.07557044
67	0xbbfa7c64	-0.007644223
68	0x3d0dd683	0.034628402
69	0x3dee8762	0.11646916
70	0xbbc40341	-0.005981833
71	0x3da39898	0.07988089
72	0x3ddb6c27	0.10713988
73	0xbd925873	-0.071457766
74	0xbce716b2	-0.028209064
75	0x3db1d831	0.08683813
76	0xbd8f22f1	-0.069890864
77	0xbcb79cb1	-0.022413583
78	0xbc93afb1	-0.018028112
79	0x3d08bc5a	0.03338275
80	0x3cc11bfe	0.023572918
81	0xbd035294	-0.032061175
82	0x3d1b2a84	0.037882343
83	0x3d40faf6	0.047114335
84	0x3dd911b1	0.105990775
85	0x3d64de05	0.055875797
86	0x3dc45570	0.095866084
87	0x3dfc41b7	0.123172216
88	0x3dbcb8a7	0.09214907
89	0xbdf2bad1	-0.11852039
90	0xbd5f7513	-0.05455501
91	0xbddea078	-0.10870451
92	0x3e0a3eb4	0.13500482
93	0x3dd4feb7	0.104001455
94	0xbd086e5b	-0.03330837
95	0xbdeafb79	-0.11473746
96	0x3da10b9d	0.07863543
97	0xbda0e9f4	-0.07857123
98	0x3da449ac	0.08021864
99	0xbd8ae7df	-0.06782507
100	0x3dd36582	0.103220955
101	0xbdb04334	-0.08606568
102	0x3da00e21	0.07815195
103	0xbc901054	-0.01758591
104	0x3d9bed5e	0.076136336
105	0x3dbaccfe	0.091211304
106	0x3d8a18ac	0.06742987
107	0x3dcc09af	0.099627845
108	0xbdc671d3	-0.09689679
109	0xbd91eb4d	-0.07124958
110	0x3d5f4514	0.054509237
111	0xbdb459bf	-0.0880618
112	0x3db3b94c	0.08775577
113	0xbde4212d	-0.1113914
114	0xbdc3f88f	-0.09568893
115	0xbda9a49e	-0.08283351
116	0xbd33f2be	-0.04393267
117	0x3da03080	0.07821751
118	0x3d8316ef	0.064008586
119	0xbcdc5fd8	-0.02690117
120	0x3d2a348a	0.04155401
121	0xbc34da71	-0.011038409
122	0xbd73b59d	-0.05949937
123	0xbd7e6158	-0.062104553
124	0xbdba4910	-0.09095967
125	0x3dd4bf5c	0.103880614
126	0x3d8b9a72	0.068165675
127	0x3b83f626	0.004027146
128	0xbd31fca1	-0.043453816
129	0x3dbdb3f4	0.09262839
130	0x3deed0b4	0.11660901
131	0x3d8e9354	0.06961694
132	0x3d68c90d	0.056832362
133	0x3d0e9fbb	0.0348203
134	0xbd91834b	-0.0710512
135	0x3e0365c4	0.1283179
136	0xbd3a4b10	-0.04548174
137	0xbdd9166a	-0.10599978
138	0x3dc1aa02	0.094562545
139	0x3d12fa39	0.035883162
140	0x3ce84ea4	0.028357811
141	0xbd19f96e	-0.03759139
142	0xbd7f4ea5	-0.06233086
143	0xbd9641a4	-0.07336739
144	0x3d829f4b	0.06378039
145	0x3c8bdbd0	0.017072588
146	0x3dbd4035	0.09240762
147	0xbdec601d	-0.1154177
148	0x3cbd2a7b	0.023091545
149	0xbc501981	-0.012701393
150	0x3d172a7c	0.03690575
151	0xbc39a401	-0.0113306055
152	0xbd7d19d3	-0.061792206
153	0xbd45c76d	-0.04828589
154	0xbda90796	-0.082534
155	0xbd7e2fb2	-0.062057205
156	0x3daa7cc2	0.08324577
157	0xbdf47cb6	-0.11937849
158	0x3d6d1293	0.057879042
159	0x3d967f06	0.073484465
160	0x3e25ef67	0.16204606
161	0x3c9f70db	0.019462993
162	0x3aac453e	0.0013143194
163	0x3e1ad2e6	0.15119514
164	0xbd0e7983	-0.03478385
165	0xbd3e7f10	-0.046507895
166	0xbd45e3a4	-0.0483128
167	0x3dd49927	0.10380774
168	0x3dcf8291	0.101323254
169	0x3daeed63	0.08541372
170	0x3dd6ea24	0.104938775
171	0xbca6d1fd	-0.020363802
172	0x3dcee758	0.10102719
173	0x3db85c90	0.0900203
174	0x3d545052	0.051834412
175	0x3dda0d7d	0.10647104
176	0xbcf63979	-0.030056702
177	0xbd1609ed	-0.03663056
178	0x3c791017	0.01520159
179	0xbe0fd66e	-0.14046642
180	0xbbe2f834	-0.006926561
181	0xbe10a88e	-0.14126799
182	0x3c980ee1	0.018561782
183	0x38f56c58	0.00011702691
184	0xbd0ee259	-0.03488383
185	0xbd8754a3	-0.0660794
186	0xbd1a94af	-0.037739452
187	0xbd4313cf	-0.047626313
188	0xbd82a132	-0.06378402
189	0x3d590de3	0.05299176
190	0x3dd13ed8	0.102170646
191	0xbd77e648	-0.060522348
192	0xbcfd10f0	-0.030891865
193	0x3dd07b39	0.10179753
194	0x3dbc336a	0.09189494
195	0x3d27bc67	0.04095116
196	0xbdc05486	-0.093911216
197	0x3bca31ab	0.0061704717
198	0xbcdccb0a	-0.026952285
199	0x3df46386	0.11933045
200	0x3cea556c	0.028605185
201	0x3dd7eb1e	0.10542892
202	0x3d81f6d6	0.06345908
203	0xbd24600a	-0.040130652
204	0x3d3c8ccf	0.046032723
205	0x3dbeaa69	0.09309847
206	0xbd67ca46	-0.056589387
207	0xbd036382	-0.03207732
208	0xbb7981bc	-0.0038071712
209	0x3d755a71	0.059900705
210	0xbd80ac07	-0.062828116
211	0x3d85a249	0.06525094
212	0x3d0be3e5	0.034152884
213	0xbd8d3c49	-0.06896264
214	0x3c35d655	0.011098464
215	0x3d661dd0	0.056180775
216	0xbc06c3ed	-0.008225423
217	0xbde2bbe6	-0.11070995
218	0xbc0d211a	-0.008613849
219	0xbd6d6b9d	-0.057963956
220	0xbe09bbbe	-0.13450524
221	0x3dd30387	0.10303407
222	0xbd4c7964	-0.049920455
223	0xbdff6926	-0.12471227
224	0xbce73d73	-0.028227543
225	0xbda90c76	-0.0825433
226	0x3c7f7bb5	0.015593459
227	0x3c8af2de	0.016961511
228	0xbd9f3f44	-0.07775739
229	0x3d467d56	0.048459373
230	0x3c6f3fd6	0.014602622
231	0xbdb57bab	-0.088614784
232	0x3d9a11f7	0.07522958
233	0x3cb08562	0.021547977
234	0x3d6742ff	0.056460377
235	0x3d3889a7	0.04505315
236	0xbd6ff2dc	-0.058581218
237	0xbdb33c36	-0.08751719
238	0x3d86fe3e	0.065914616
239	0x3e045772	0.12923983
240	0xbce9b192	-0.028527055
241	0x3d0592c3	0.032610666
242	0x3de31ae6	0.11089115
243	0x3d2d4863	0.04230536
244	0xbd8996ab	-0.06718191
245	0xbdae0e3c	-0.08498809
246	0x3d8b6fc1	0.06808425
247	0xbd7019d6	-0.05861839
248	0xbc9e7253	-0.019341623
249	0x3dc81153	0.09768929
250	0xbcb0bc75	-0.021574238
251	0x3c40d653	0.011769849
252	0x3dc2926e	0.095005855
253	0xbe006fae	-0.12542602
254	0x3cde61ab	0.027146181
255	0xbdb61315	-0.08890358

lstm.weight_hh_l0 f4 [256, 64]
0	0xbbaa10c0	-0.005189985
1	0x3d2e5e4f	0.04257041
2	0xbd9ca438	-0.0764851
3	0xbd75c21c	-0.05999957
4	0x3dadf2ee	0.08493601
5	0x3dab0e4a	0.08352335
6	0xbe04eb4c	-0.12980384
7	0x3d5468b1	0.051857654
8	0xbdf55a70	-0.1198014
9	0x3dddb0f7	0.10824769
10	0xbe09013f	-0.13379382
11	0x3db8dab9	0.09026093
12	0xbde32e44	-0.11092809
13	0xbe5f3d7a	-0.21800795
14	0xbda848cb	-0.08217009
15	0xbaf65b2a	-0.001879548
16	0xbd2fca4f	-0.042917546
17	0x3cc3e97e	0.023915049
18	0xbe098933	-0.13431244
19	0x3e091e13	0.13390379
20	0x3d1a47df	0.037666198
21	0x3e6f3325	0.23359354
22	0xbcfc9050	-0.030830532
23	0x3d618547	0.055058744
24	0xbdd1dc6d	-0.10247121
25	0x3d3584c1	0.044316057
26	0xbdddfae8	-0.10838872
27	0xbe11dbb1	-0.14243962
28	0xbe14b5a3	-0.14522414
29	0xbe12e647	-0.14345656
30	0x3ca20c19	0.01978116
31	0xbdb1b597	-0.08677214
32	0xbbaa1887	-0.005190912
33	0xbd16d726	-0.036826275
34	0xb9dacd72	-0.0004173327
35	0xbe3d6823	-0.18496756
36	0xbe720d6f	-0.23637937
37	0xbd4b2c8e	-0.049603038
38	0xbdb77cc6	-0.089593455
39	0xbae31f98	-0.0017328141
40	0x3c240330	0.010010526
41	0x3d9f194c	0.07768497
42	0xbd876001	-0.06610108
43	0xbdc543d5	-0.096320786
44	0xbe45fcfb	-0.19334786
45	0x3e4ed2ca	0.20197597
46	0x3dbb1cb1	0.09136332
47	0x3d9e4ab7	0.077290945
48	0xbe0fb79b	-0.14034884
49	0x3cbb3093	0.02285031
50	0xbe4d1026	-0.20025691
51	0x3d36e910	0.04465586
52	0xbd76b72d	-0.060233284
53	0x3e24ff28	0.1611296
54	0xbe3d8e78	-0.18511379
55	0x3c6d6fcb	0.014491986
56	0xbe23b6d4	-0.15987712
57	0x3d904202	0.0704384
58	0xbd4de78e	-0.050269656
59	0xbd8f3b71	-0.069937594
60	0xbce9abde	-0.028524335
61	0xbd12f7a0	-0.035880685
62	0xbcdbc3a9	-0.026826696
63	0xbd90a0fd	-0.07061956
64	0x3e2c69d0	0.1683724
65	0xbe1d9474	-0.15388662
66	0xbe6c2761	-0.23061897
67	0x3b1d464b	0.0023998197
68	0xbe212403	-0.15736394
69	0xbd1d0ef5	-0.038344342
70	0xbbb0bcda	-0.0053936066
71	0x3bd8a58f	0.006611533
72	0xbe090360	-0.13380194
73	0x3b1609d9	0.0022894053
74	0x3d98c17f	0.074587815
75	0x3b01584a	0.0019736462
76	0xbd47bf5a	-0.04876647
77	0x3b012bf9	0.0019710048
78	0xbdb1c8d7	-0.08680885
79	0x3e33d50d	0.17561741
80	0x3e010b0c	0.1260187
81	0xbe3380da	-0.17529622
82	0x3d810250	0.06299269
83	0xbd9dca98	-0.07704657
84	0xbcf40463	-0.029787248
85	0x3e39a04c	0.18127555
86	0xbda0a46f	-0.07843863
87	0x3df1cc24	0.11806515
88	0xbe33f291	-0.17573
89	0xbc7783b2	-0.015107082
90	0x3de56779	0.112013765
91	0x3e2a4d99	0.16631164
92	0xbbb06538	-0.00538316
93	0xbe405b63	-0.18784861
94	0xbd27c26d	-0.040956903
95	0x3df3f4f6	0.11911957
96	0x3d36029b	0.04443608
97	0x3dc56de9	0.09640104
98	0xbe1ffb7d	-0.15623279
99	0xbdd34b19	-0.10317058
100	0x3ca639b0	0.02029118
101	0x3e1e291f	0.15445374
102	0x3d6e8377	0.058230843
103	0x3dce7bf1	0.10082234
104	0x3d972102	0.073793426
105	0x3dc84383	0.09778502
106	0xbd30fa92	-0.043207712
107	0x3d177d14	0.03698452
108	0xbd53c99e	-0.05170595
109	0x3d5c2b5c	0.05375229
110	0xbe94759a	-0.28995973
111	0x3cf7b1d4	0.030236162
112	0x3e79d45e	0.24397418
113	0x3cb31db1	0.021864744
114	0x3d1bb94d	0.038018513
115	0xbe1c56a9	-0.15267433
116	0xbd5d3a10	-0.05401045
117	0x3c878180	0.016541243
118	0xbe28703d	-0.16449066
119	0x3dd72070	0.10504234
120	0x3a8fbbd4	0.0010966011
121	0x3dffa3c4	0.12482408
122	0xbd1189f2	-0.035531946
123	0xbdeff43b	-0.11716505
124	0xbd5e77bc	-0.054313406
125	0xbe25b4c9	-0.16182245
126	0x3c2f2e70	0.010692224
127	0x3d041a7d	0.032251824
128	0x3e40abcc	0.18815535
129	0xbd5dc5eb	-0.054143827
130	0x3db1055e	0.08643602
131	0x3e4f1c36	0.20225605
132	0xbe2d4ad9	-0.16923083
133	0x3c46b31f	0.012127667
134	0xbe17eb1e	-0.14835784
135	0x3e3485e5	0.17629202
136	0x3cf188f0	0.029484242
137	0x3e72cc58	0.23710763
138	0xbe200a68	-0.1562897
139	0xbb0739f8	-0.0020633917
140	0xbd78840a	-0.060672797
141	0xbd5dc5bf	-0.054143663
142	0xbdf1506d	-0.11782918
143	0x3e59173c	0.2120027
144	0xbd5a4c20	-0.053295255
145	0xbd980b22	-0.074239984
146	0x3d224c60	0.039623618
147	0x3e289c74	0.16465932
148	0x3e0d6ee1	0.13811828
149	0xbdfdc277	-0.12390607
150	0xbe17d22c	-0.14826268
151	0x3e1d83dc	0.15382332
152	0x3c53a510	0.012917772
153	0x3c42d69d	0.011891988
154	0xbca5496d	-0.020176614
155	0x3e852fbf	0.2601299
156	0xbe06aef0	-0.13152671
157	0xbdfea502	-0.124338165
158	0xbd299f32	-0.041411586
159	0xbe7800c1	-0.24219038
160	0xbc7ef7d4	-0.0155620165
161	0xbbe3bf48	-0.0069502927
162	0x3d3d099c	0.046151742
163	0x3d4805a6	0.04883351
164	0x3e398fb9	0.18121232
165	0xbe119f74	-0.14220983
166	0xbd99322a	-0.07480271
167	0x3e0d8287	0.13819323
168	0x3e41c079	0.18921079
169	0x3d1ab63e	0.037771456
170	0xbdf485d2	-0.11939587
171	0x3e019377	0.1265391
172	0x3b29c41c	0.0025904244
173	0x3d3e25e9	0.046422873
174	0xbd09b917	-0.03362378
175	0x3d81dd3f	0.063410275
176	0x3e111864	0.1416946
177	0xbe09269e	-0.13393638
178	0xbe1f1de1	-0.15538742
179	0xbcb1b625	-0.021693299
180	0xbd6689a5	-0.05628361
181	0x3e03e710	0.12881112
182	0x3dc2cd1f	0.0951178
183	0x3dc40240	0.09570742
184	0xbdb694df	-0.08915114
185	0xbc213b00	-0.009840727
186	0xbe503130	-0.20331264
187	0xbe6e7e9a	-0.23290482
188	0x3d8fa7a5	0.070143975
189	0xbe4f387b	-0.2023639
190	0x3bd3cfe4	0.0064639915
191	0x3e832024	0.2561046
192	0x3ce92362	0.028459255
193	0xbd971aef	-0.07378184
194	0xbe18b47e	-0.14912602
195	0xbd9f5a42	-0.07780887
196	0xbdacfdb2	-0.08446826
197	0x3e31585e	0.17318866
198	0x3de56e95	0.112027325
199	0x3c149eba	0.0090710465
200	0xbc867ab9	-0.01641594
201	0x3e5065ed	0.20351382
202	0x3d95c617	0.07313173
203	0xbcbf7c79	-0.023374783
204	0x3df1917d	0.11795328
205	0xbde82d1a	-0.113367274
206	0xbd56c94d	-0.05243807
207	0x3e70c71a	0.23513451
208	0x3ddb3fc6	0.10705523
209	0xbdebc9d3	-0.11513104
210	0x3de8aef2	0.11361493
211	0x3d94f00f	0.0727235
212	0x3e44fb06	0.19236383
213	0x3c9fad4b	0.019491812
214	0x3e093d3e	0.13402268
215	0x3de42b8a	0.11141117
216	0xbdca2b64	-0.09871557
217	0xbd9d3cc5	-0.076776065
218	0xbe06ce7d	-0.13164707
219	0xbc7d17c2	-0.015447559
220	0x3d1e2c43	0.03861643
221	0x3d3ecc9e	0.046581857
222	0x3b78d50a	0.0037968778
223	0xbe25cdb4	-0.16191751
224	0x3d0007d1	0.031257454
225	0x3d119ce4	0.035550013
226	0x3dc56df1	0.0964011
227	0x3da44cd5	0.08022467
228	0xbe416459	-0.18885936
229	0x3d2e88c4	0.0426109
230	0x3d31ca6b	0.04340593
231	0x3c8bcdf3	0.017065978
232	0x3cc9c17a	0.02462839
233	0x3e153549	0.14571108
234	0xbdf173c2	-0.11789657
235	0xbcffd372	-0.031228755
236	0xbde818b0	-0.11332834
237	0x3e0fafc7	0.14031897
238	0xbd507b5a	-0.050898887
239	0x3c2b3704	0.0104501285
240	0x3def3b14	0.1168119
241	0x3bb74c42	0.0055938074
242	0x3c2478c7	0.010038561
243	0x3e303515	0.17207749
244	0xbc74613e	-0.0149157625
245	0x3ba396c3	0.0049923374
246	0x3cda0d2d	0.02661761
247	0x3d100612	0.03516204
248	0x3dbb9c95	0.09160725
249	0xbe2af084	-0.16693312
250	0x3d15d3c3	0.036578905
251	0x3d8915de	0.06693624
252	0x3e2e93eb	0.17048614
253	0xbd90d0b4	-0.07071057
254	0xbd7b905f	-0.06141698
255	0xbe558c23	-0.20854239

lstm.bias_ih_l0 f4 [256]
0	0xbd862afa	-0.06551166
1	0x3e22e5e3	0.15908007
2	0x3deb6a72	0.11494912
3	0x3e093dd2	0.13402489
4	0xb99fea26	-0.00030501297
5	0x3dad52bb	0.08463045
6	0xbc22e49a	-0.009942198
7	0xbd3b862e	-0.04578226
8	0xbd0bd82c	-0.034141704
9	0xbde09412	-0.10965742
10	0xbd904a58	-0.0704543
11	0xbd012f63	-0.031539332
12	0xbd8e0064	-0.06933668
13	0x3e06ceae	0.1316478
14	0x3e1de41c	0.15419048
15	0xbd814c87	-0.063134246
16	0xbdd0f8ef	-0.1020373
17	0x3e2f74f8	0.17134464
18	0xbb15369f	-0.0022768152
19	0x3d526fc6	0.051376127
20	0xbdc7a85b	-0.09748908
21	0x3e0952cc	0.13410491
22	0x3d46b208	0.048509628
23	0x3dcf067f	0.10108661
24	0x3d367a08	0.04454997
25	0xbdf8c0c5	-0.12146143
26	0xbd1ba315	-0.037997324
27	0x3db6a6e1	0.089185484
28	0xbdc2c19c	-0.09509584
29	0x3d8294f9	0.063760705
30	0xbcc62f1e	-0.02419239
31	0x3d96e55f	0.07367968
32	0xbdaebff3	-0.08532705
33	0xbd8d379b	-0.068953715
34	0x3d267cba	0.040646292
35	0xbd5f2dfd	-0.054487217
36	0x3dd012d8	0.10159844
37	0xbb4e13bd	-0.003144487
38	0x3e205a1f	0.15659378
39	0x3c3377c2	0.010953845
40	0x3de0367a	0.109478906
41	0xbc220008	-0.009887703
42	0xbddc24e8	-0.10749227
43	0x3df6a385	0.120429076
44	0xbbd337ab	-0.006445845
45	0x3dc616a3	0.09672286
46	0xbd088dd8	-0.033338398
47	0x3e2d1c16	0.16905245
48	0xbdc643ae	-0.096808776
49	0x3b51b75d	0.0032000162
50	0x3dd0e92d	0.10200725
51	0x3e2443de	0.16041514
52	0x3d8b6a8f	0.06807434
53	0xbd95923e	-0.07303284
54	0x3e18cccd	0.14921875
55	0x3db349bd	0.08754299
56	0xbd417084	-0.047226444
57	0x3c2b27b6	0.01044648
58	0x3c4a66c3	0.012353602
59	0x3bf88e75	0.0075853416
60	0xbd364ac1	-0.044504885
61	0x3d1d2e88	0.038374454
62	0x3e51f967	0.20505296
63	0x3b891b27	0.004184145
64	0xbe209403	-0.15681462
65	0x3dd5650d	0.104196645
66	0x3e63e7c0	0.22256374
67	0x3d038568	0.032109648
68	0x3ccbe166	0.024887752
69	0x3e2a27cb	0.16616742
70	0xbd6ba5c1	-0.057531122
71	0xbd07daf1	-0.033167783
72	0x3d55c1b2	0.052186675
73	0xbdbe8009	-0.093017645
74	0x3d969bba	0.07353921
75	0x3d058a2b	0.03260247
76	0xbd2a7310	-0.04161364
77	0x3d10c035	0.035339553
78	0xbd83e566	-0.06440239
79	0xbb35aad0	-0.002772022
80	0x3d88efbc	0.06686351
81	0xbcba6f3e	-0.022758123
82	0xbb3b218b	-0.0028553929
83	0xbe088f48	-0.13335907
84	0x3d5281b0	0.05139321
85	0x3e135e36	0.14391407
86	0x3e4f1ecb	0.2022659
87	0x3e10b943	0.14133172
88	0x3d1144f8	0.035466164
89	0x3dc2397c	0.094836205
90	0xbcd2b5bd	-0.025721425
91	0xbdbe54b2	-0.09293498
92	0xbe02c7ae	-0.12771484
93	0xbcbf44b6	-0.023348194
94	0xbd1bc115	-0.038025934
95	0x3d012a34	0.03153439
96	0x3cace62f	0.021105854
97	0x3da72347	0.081610255
98	0x3d660e96	0.056166254
99	0xbd6e37a8	-0.058158547
100	0x3d99a189	0.075015135
101	0x3de9b492	0.11411394
102	0x3d1ce683	0.03830577
103	0xbd7f6d3c	-0.062360033
104	0x3d376f08	0.044783622
105	0x3d9a8ebf	0.07546758
106	0xbb951a59	-0.00455026
107	0x3d11003c	0.035400614
108	0x3d68fadc	0.056879863
109	0xbcde0b51	-0.027105005
110	0x3d83395d	0.064074256
111	0xbc836dd7	-0.016043587
112	0x3d22aaf8	0.03971383
113	0x3deb1daf	0.11480271
114	0xbde6c8ab	-0.11268743
115	0xbc02cf76	-0.007984033
116	0x3dcf3029	0.10116608
117	0x3e07c8b0	0.1326015
118	0x3e168682	0.14699748
119	0x3d8f1285	0.06985954
120	0xbc418efe	-0.011813877
121	0x3d947c8f	0.0725032
122	0x3cabbeb5	0.02096496
123	0x3d19e52d	0.037572075
124	0x3da41e6c	0.08013615
125	0xbce25582	-0.027628664
126	0x3d866dda	0.06563921
127	0x3e16311e	0.14667174
128	0x3dfd15a1	0.12357641
129	0xbddbe787	-0.1073752
130	0xbd4c3257	-0.049852695
131	0x3d3133e1	0.043262366
132	0x3ca20598	0.019778058
133	0xbc4fbeca	-0.012679765
134	0xbd80a1b1	-0.0628084
135	0x3d09bb7d	0.03362607
136	0xbd877bb8	-0.06615394
137	0xbdff52dd	-0.12466977
138	0x3dda94fc	0.10672948
139	0x3dc02480	0.09381962
140	0xbcdbee3e	-0.026847001
141	0x3d952604	0.072826415
142	0xbe036d09	-0.12834562
143	0x3c9fdb0f	0.019513635
144	0xbd950c5f	-0.0727775
145	0xbdbe9707	-0.0930615
146	0x3d7a3fdd	0.06109606
147	0x3de072c6	0.10959391
148	0x3da2c2fc	0.079473466
149	0xbd80af7b	-0.0628347
150	0x3cb6789b	0.022274306
151	0x3d714efe	0.058913223
152	0xbcd5eb89	-0.026113288
153	0xbe25f31d	-0.16206022
154	0x3ce8f539	0.028437244
155	0x3dbebe0f	0.093135945
156	0x3d978398	0.073981464
157	0xbe020b21	-0.12699558
158	0xbcbb2086	-0.022842657
159	0xbdafab77	-0.08577626
160	0x3ced23a4	0.028947659
161	0x3d47392e	0.048638515
162	0x3cf292aa	0.02961095
163	0xbe258783	-0.16164975
164	0xbd47f0dd	-0.04881369
165	0xbda3cdea	-0.07998259
166	0x3df01188	0.11722094
167	0x3e0e98ba	0.13925448
168	0xbd5570ac	-0.052109405
169	0x3e0329da	0.12808934
170	0xbe185da6	-0.14879474
171	0x3d5dee77	0.054182496
172	0x3d9ebd11	0.07750905
173	0x3b3f6b34	0.0029208185
174	0xbd4028fb	-0.046914082
175	0x3dc59db6	0.096492216
176	0xbca025b5	-0.01954923
177	0x3db22975	0.086993136
178	0xbe13fdfc	-0.14452356
179	0xbd8318dd	-0.06401227
180	0xbe09e303	-0.13465504
181	0x3e02d4a6	0.12776431
182	0xbdc4e1f1	-0.096134074
183	0xbd00eeb6	-0.031477652
184	0x3d3b3a9d	0.045710195
185	0xbcdc70f2	-0.026909325
186	0x3d5680a2	0.052368768
187	0x3daee611	0.085399754
188	0x3d830995	0.06398312
189	0xbd8d995d	-0.06914017
190	0x3d88e966	0.06685142
191	0x3e13eb3a	0.144452
192	0x3cf5a60e	0.029986408
193	0x3dd7c9ab	0.10536512
194	0x3e264eb8	0.16240966
195	0x3ad932ce	0.0016570927
196	0x3d1e11e3	0.038591277
197	0x3dcf4a05	0.1012154
198	0x3ca9dfe0	0.020736635
199	0x3cf0e67a	0.029406775
200	0x3e309d28	0.1724745
201	0x3e26a4bd	0.1627378
202	0xbce5e7ca	-0.028064627
203	0x3e109666	0.14119872
204	0x3e16d3b6	0.14729199
205	0x3c57f2e9	0.013180473
206	0x3e1eeaa7	0.155192
207	0x3e59d801	0.21273805
208	0xbd7ddad3	-0.061976265
209	0x3e2887af	0.16458009
210	0xbd24728e	-0.04014831
211	0x3dd4345c	0.10361549
212	0x3da3ecc5	0.080041446
213	0x3dd6f89b	0.104966365
214	0x3e18b46e	0.14912578
215	0x3d5d5520	0.05403626
216	0x3c377893	0.011198181
217	0xbd6abb03	-0.057307255
218	0x3c9875ef	0.018610923
219	0x3e417f59	0.18896236
220	0x3da97314	0.082739025
221	0x3dbb2f3c	0.091398686
222	0x3d886be4	0.066612035
223	0x3e254480	0.16139412
224	0xbb24c016	-0.0025138906
225	0x3df26833	0.11836281
226	0x3d659c3d	0.056057204
227	0xbce0e3ab	-0.02745231
228	0x3d9562f6	0.07294266
229	0x3e1b30cb	0.15155332
230	0x3daeb3bb	0.085303746
231	0xbc7950e5	-0.015217041
232	0x3e2040e1	0.1564975
233	0x3e312a9e	0.17301413
234	0x3cc9e2e8	0.02464433
235	0x3e041a1b	0.12900583
236	0x3dba5c22	0.09099604
237	0x3e3c9543	0.18416314
238	0xbdcc519b	-0.099765025
239	0x3d9489f3	0.07252874
240	0x3dcf4264	0.10120085
241	0x3e2d682d	0.16934271
242	0x3e4e6b5c	0.20158142
243	0xbd8a4a74	-0.06752482
244	0x3df7094b	0.12062319
245	0xbd305710	-0.04305178
246	0x3e3dc0bb	0.18530552
247	0x3e229fa2	0.15881208
248	0xbd07800c	-0.0330811
249	0xbb0f85a5	-0.0021899727
250	0x3da27324	0.079321176
251	0x3cb3e149	0.02195801
252	0x3dba168f	0.09086334
253	0x3e0d353e	0.13789842
254	0x3da75006	0.0816956
255	0x3dcb7fc0	0.09936476

lstm.bias_hh_l0 f4 [256]
0	0x3d3b47f5	0.04572292
1	0x3e1812c2	0.14850906
2	0x3c2f37da	0.010694468
3	0x3e281ab7	0.16416441
4	0x3e443ffc	0.19165033
5	0x3dd8bd59	0.1058299
6	0x3dd980b3	0.106202506
7	0x3b2fe73e	0.0026840712
8	0x3dc10c4f	0.09426176
9	0xbdaa72ca	-0.083226755
10	0xbc76df05	-0.01506782
11	0xbcda539c	-0.026651196
12	0x3e2716c3	0.16317277
13	0x3dacf737	0.0844559
14	0x3dee92e2	0.116491094
15	0xbd5d2f1e	-0.054000013
16	0x3d10135e	0.03517472
17	0x3e054dd1	0.13017966
18	0x3e114dbe	0.14189813
19	0x3d57e400	0.052707672
20	0x3bf6d413	0.0075326054
21	0x3e01c840	0.12674046
22	0xbd3efd1c	-0.046628103
23	0xbd19c3ae	-0.03754013
24	0xbe21f0b4	-0.15814477
25	0x3db3a78f	0.08772194
26	0x3db1e9de	0.08687185
27	0x3d8a17d4	0.06742826
28	0xbd305275	-0.043047387
29	0x3e07689d	0.132235
30	0x3e247a3d	0.16062255
31	0xbb49f257	-0.0030814612
32	0x3d21eecc	0.039534375
33	0x3e1a37f7	0.15060411
34	0xbd849546	-0.06473784
35	0x3e3314c3	0.17488389
36	0x3dc940c0	0.09826803
37	0x3de97d8c	0.11400899
38	0x3e24ea1b	0.16104929
39	0xbe2a2bf2	-0.16618326
40	0x3db64c9e	0.08901332
41	0x3c47f4c0	0.012204349
42	0x3d643e1b	0.05572329
43	0xbce7bd03	-0.02828837
44	0xbcc0dc94	-0.02354268
45	0x3c1a3115	0.009411116
46	0x39c67354	0.0003785143
47	0x3d8126f7	0.0630626
48	0xbde69fa1	-0.112609155
49	0x3abe61c2	0.0014524984
50	0xbc9663f0	-0.0183582
51	0x3de5eaf3	0.11226454
52	0x3dc46991	0.09590448
53	0x3ca9f5b2	0.02074704
54	0x3e15dd08	0.14635098
55	0x3d95f718	0.0732252
56	0xbdccbc8e	-0.099969015
57	0x3c7cb5d4	0.015424211
58	0x3d51d6c7	0.05123022
59	0x3e007743	0.12545495
60	0xbd29bfcf	-0.04144269
61	0x3e448b95	0.19193871
62	0x3df40090	0.1191417
63	0x3e04344e	0.12910578
64	0x3d63bf74	0.055602506
65	0x3d08fb10	0.033442557
66	0x3d171b21	0.036891107
67	0x3df96d80	0.121790886
68	0x3e17e921	0.14835025
69	0x3e1e1096	0.15436015
70	0x3e3c2ca1	0.183764
71	0xbd66dc7c	-0.056362614
72	0xbd11c771	-0.035590593
73	0x3c9558b9	0.018230783
74	0x3e152059	0.14563121
75	0x3e213098	0.15741193
76	0xbd1adbfc	-0.03780745
77	0xbd99fe31	-0.07519186
78	0x3db0f9ae	0.086413726
79	0xbdb5855d	-0.08863328
80	0x3d5009c5	0.050790567
81	0xbcbdf1be	-0.02318656
82	0x3bb69b23	0.005572693
83	0x3d8cbc25	0.06871823
84	0x3dbddb6d	0.09270368
85	0x3d45cc69	0.048290644
86	0x3d310dff	0.04322624
87	0x3dab362b	0.08359941
88	0x3d39b10f	0.04533487
89	0x3de1836d	0.110113956
90	0x3d8284d0	0.06372988
91	0x3d6aa3c8	0.0572851
92	0xbd450c51	-0.04810745
93	0x3ddf4a4f	0.10902845
94	0x3dabdfbc	0.08392283
95	0x3b683000	0.0035429
96	0x3e0a897d	0.1352901
97	0x3e2e3d78	0.17015636
98	0xbdaf59f6	-0.085620806
99	0xbce67d93	-0.02813605
100	0xbc3268af	-0.010889216
101	0x3de70048	0.112793505
102	0x3e409f95	0.18810876
103	0x3df2758f	0.11838829
104	0xbd04f654	-0.03246148
105	0xbdaa67b2	-0.083205596
106	0xbd3b6652	-0.045751877
107	0xbd0410e5	-0.032242674
108	0x3d69ca78	0.057077855
109	0x3c2be4fb	0.010491605
110	0x3dd2f0d8	0.102998435
111	0x3e0e61a0	0.13904428
112	0xbc617775	-0.013761391
113	0xbc5791a2	-0.01315728
114	0x3d307393	0.04307897
115	0x3d84a8f0	0.06477535
116	0x3cc05627	0.02347858
117	0xbd18f80e	-0.03734594
118	0x3e19c372	0.15015963
119	0x3b84bc13	0.0040507405
120	0xbdcab002	-0.09896852
121	0x3db13143	0.08651974
122	0xbd03b167	-0.032151606
123	0x3d55d0f8	0.05220124
124	0xbd510aa5	-0.051035542
125	0xbda49893	-0.08036914
126	0x3e47fc58	0.19529855
127	0x3e80316b	0.25037703
128	0x3dea8478	0.11451048
129	0xbc3ccf63	-0.011524054
130	0xbdccf5e2	-0.10007836
131	0x3d3e199c	0.04641114
132	0xbbb2035c	-0.0054325294
133	0x3e1b519f	0.15167855
134	0xbd3ed4ff	-0.046589848
135	0xbc48eb70	-0.012263164
136	0x3c9986c6	0.018741023
137	0x3d2fba7b	0.04290245
138	0x3cdd7dcc	0.027037524
139	0xbd230057	-0.039795246
140	0x3e02d64c	0.1277706
141	0xbe1356bf	-0.1438856
142	0xbccba3f1	-0.024858447
143	0x3e37d51a	0.17952386
144	0x3dcd2895	0.10017506
145	0xbe0f20e5	-0.13977392
146	0xbdfd1a61	-0.12358547
147	0x3de421af	0.11139237
148	0xbddb6c74	-0.10714045
149	0xbae2905d	-0.0017285455
150	0x3d325503	0.043538105
151	0x3dfa2e8e	0.12215911
152	0xbc1f94f1	-0.0097401
153	0x3d4f7338	0.05064699
154	0xbc53af89	-0.012920269
155	0x3d55206b	0.05203287
156	0xbe0f784f	-0.14010738
157	0x3d90bf14	0.07067695
158	0x3e08d26c	0.1336152
159	0xbe08ce4c	-0.13359946
160	0x3d508641	0.050909285
161	0xbdf5d885	-0.120041884
162	0x3d45a01c	0.048248395
163	0xbd502db4	-0.050824836
164	0xbdcd8645	-0.100353755
165	0xbd71502b	-0.058914345
166	0x3df815b4	0.121135145
167	0x3e06b115	0.13153489
168	0xbe134134	-0.14380342
169	0x3ddf6d8c	0.10909566
170	0x3ca38800	0.01996231
171	0x3cb8842e	0.022523966
172	0xbe0b46c0	-0.13601208
173	0xbcc057e0	-0.023479402
174	0xbde05962	-0.109545484
175	0x3db05a70	0.086109996
176	0xbc8ad7e6	-0.016948652
177	0x3d2238b4	0.039604858
178	0xbdb6bf57	-0.08923214
179	0xbd17ce6a	-0.037062086
180	0xbe1fb85f	-0.15597676
181	0xbd486318	-0.04892263
182	0xbe33535a	-0.17512265
183	0xbdeaa2b8	-0.114568174
184	0x3e429034	0.19000322
185	0xbd8a587d	-0.06755159
186	0xbc6988e8	-0.014253832
187	0xbde4d510	-0.11173451
188	0x3c4a95a9	0.012364783
189	0xbc0c9611	-0.0085807005
190	0xbdbb9ba2	-0.09160544
191	0xbd889e83	-0.06670859
192	0x3e262fc5	0.1622916
193	0x3e2844cb	0.16432492
194	0xbd721709	-0.059104
195	0x3d60ec4b	0.054912847
196	0x3e3be2e8	0.18348277
197	0x3d4c1dfc	0.049833283
198	0x3e4dbaea	0.20090833
199	0x3da3ff3c	0.080076665
200	0x3e148f31	0.14507748
201	0x3e0e7ab5	0.13913997
202	0x3d9dd63e	0.07706879
203	0x3dd5e766	0.104445264
204	0x3d6629f0	0.05619234
205	0x3dfa2c49	0.12215478
206	0x3b0c57cb	0.0021414633
207	0x3e02e6e3	0.12783389
208	0x3cb826c1	0.022479417
209	0xbd137def	-0.03600877
210	0xba9556cc	-0.0011393665
211	0x3e0c1c91	0.13682772
212	0x3d0dfad2	0.03466303
213	0xbd9e33bf	-0.077247135
214	0x3dc56dfa	0.09640117
215	0x3e09cfe0	0.13458204
216	0x3d9b0719	0.07569713
217	0xbcccfb23	-0.025022095
218	0xbd87d8e2	-0.06633164
219	0x3c8c8778	0.01715444
220	0x3e4e8b7e	0.201704
221	0x3e1ec3c9	0.15504374
222	0xbde974e8	-0.11399251
223	0xbcaaff59	-0.020873712
224	0xbd70370b	-0.058646243
225	0x3e2ee6b3	0.17080192
226	0xbb87105b	-0.004121823
227	0x3e247b9d	0.1606278
228	0x3e2a7358	0.16645563
229	0x3d2463c3	0.040134203
230	0x3e2ecbff	0.17070006
231	0x3db001f9	0.08594126
232	0xbc974543	-0.018465644
233	0xbd4938f8	-0.049126595
234	0x3c2a3a60	0.010389894
235	0x3ddc87f0	0.107681155
236	0x3c874b86	0.016515505
237	0xbb0dc96d	-0.0021634952
238	0xbddfdfdd	-0.109313704
239	0x3e0dbdc9	0.13841929
240	0xbd9ab178	-0.07553381
241	0x3e4347b1	0.19070317
242	0xbd005fdf	-0.03134143
243	0x3d83273c	0.06403968
244	0xbd398f89	-0.0453029
245	0x3db13606	0.08652882
246	0xbbafc3e0	-0.0053639263
247	0x3d0aebe6	0.033916377
248	0xbc27f602	-0.010251524
249	0x3e2b47f5	0.16726668
250	0x3dd75cbc	0.105157346
251	0xbd50f4bb	-0.051014643
252	0x3d9c53b3	0.07633152
253	0x3d925bf6	0.071464464
254	0x3d96d900	0.07365608
255	0x3d129e46	0.035795473

lstm.weight_ih_l1 f4 [256, 64]
0	0xbc9892a7	-0.018624617
1	0x39fdee01	0.00048433247
2	0x3cb68ce5	0.02228398
3	0xbc8ba5e8	-0.017046884
4	0xbe2272f5	-0.15864165
5	0x3e3995b1	0.18123509
6	0xbdf219a4	-0.11821297
7	0xbcb19f48	-0.021682397
8	0xbd65c833	-0.056099128
9	0xbe1bbaeb	-0.15208022
10	0x3dc24c3c	0.09487197
11	0x3c5cba39	0.013472133
12	0x3dbb5569	0.0914715
13	0x3d6a5ee8	0.057219416
14	0xbd98cba2	-0.07460715
15	0x3c4f7c2f	0.012663885
16	0x3e1ed4a7	0.15510808
17	0xbd4d4ae5	-0.050120253
18	0xbae3cb77	-0.0017379363
19	0xbd5048e6	-0.05085077
20	0xbdf17d2e	-0.11791454
21	0x3d931a33	0.071827315
22	0x3e0b029f	0.13575219
23	0x3df2ee3f	0.11861848
24	0x3da2e878	0.07954496
25	0xbd1faafd	-0.038981427
26	0xbd104dd4	-0.035230473
27	0xbdbbe357	-0.09174221
28	0xbe242649	-0.1603023
29	0x3ce26cee	0.027639832
30	0x3e051534	0.1299637
31	0x3c617d81	0.013762833
32	0x3cd50dcb	0.026007554
33	0x3ce508dd	0.027958328
34	0x3c907bc3	0.01763714
35	0xbe3c698e	-0.18399641
36	0x3c57fc05	0.013182645
37	0x3d7e0d8d	0.06202464
38	0xbc455e15	-0.012046357
39	0x3e2ffb0f	0.17185615
40	0xbdcec74d	-0.10096607
41	0xbd4bbb88	-0.04973939
42	0xbe208b24	-0.15678078
43	0xbda5af55	-0.080900826
44	0xbe4141b9	-0.18872727
45	0x3d04ab50	0.03238994
46	0xbdc70a7f	-0.09718799
47	0x3be1ba99	0.0068886993
48	0xbdcd95af	-0.100383155
49	0xbd2f0760	-0.042731643
50	0xbe451585	-0.1924649
51	0xbc5169bd	-0.012781558
52	0xbe3a4925	-0.18191965
53	0x3e1d37bc	0.15353292
54	0xbdd2cd91	-0.10293115
55	0xbca0cec7	-0.01962985
56	0x3dc70a8f	0.09718811
57	0xbe290148	-0.16504395
58	0x3d9d38e7	0.07676869
59	0x3e053d8a	0.13011757
60	0x3e1b0c3e	0.15141389
61	0xbd1d3261	-0.038378123
62	0xbda790f6	-0.08181946
63	0xbcee970e	-0.029124763
64	0xbcccbb7c	-0.024991743
65	0xbe05f49c	-0.13081592
66	0xbbdb0ee5	-0.006685125
67	0xbe0c3fa3	-0.1369615
68	0xbe305c34	-0.17222673
69	0x3dc65c07	0.096855216
70	0xbdbd27d4	-0.09236112
71	0x3cb3bdd2	0.0219411
72	0xbcdcb034	-0.026939489
73	0xbd7bf8e1	-0.061516646
74	0x3e0c24f7	0.13685976
75	0x3e2128d1	0.15738226
76	0x3e2f766a	0.17135015
77	0xbe2276e2	-0.15865663
78	0xbdf267c0	-0.11836195
79	0x3dabb9e4	0.08385065
80	0x3e1fbae7	0.15598641
81	0xbda2be9e	-0.079465136
82	0xbd33e8e5	-0.043923277
83	0xbce24131	-0.027618976
84	0xbdddb903	-0.10826304
85	0x3db9547d	0.09049318
86	0x3e0225ac	0.12709683
87	0x3e166278	0.14686
88	0x3cc28ede	0.023749765
89	0x3e14573d	0.14486404
90	0xbdcf07f8	-0.10108942
91	0x3dcef9d3	0.10106244
92	0xbdf923b5	-0.12165014
93	0x3db1bf41	0.08679057
94	0xbde4c8da	-0.11171122
95	0x3d4ce077	0.050018754
96	0xbc923c4a	-0.017851014
97	0x3e130f00	0.14361191
98	0x3c5ddf93	0.013542074
99	0xbddd7756	-0.10813777
100	0x3d2f917d	0.042863358
101	0xbdaabf46	-0.08337264
102	0x3e24587a	0.16049376
103	0x3c82e19f	0.015976725
104	0x3d08e467	0.033420946
105	0x3df7d6a2	0.12101485
106	0xbe324718	-0.17409933
107	0xbd5fcb01	-0.05463696
108	0xbd4c998f	-0.049951132
109	0x3e4923ba	0.19642535
110	0xbe25b895	-0.16183694
111	0xbdfb259c	-0.12263033
112	0x3d1a1c1b	0.03762446
113	0x3dec4cc8	0.11538082
114	0xbe06f6d8	-0.13180101
115	0x3dea5914	0.114427716
116	0x3d2d1d83	0.042264473
117	0xbd8da387	-0.06915956
118	0xbe21f371	-0.15815522
119	0xbdc82175	-0.097720064
120	0xbd29dd93	-0.041471075
121	0xbe0d2c7e	-0.13786504
122	0x3dc02ece	0.09383927
123	0xbcd22baf	-0.025655596
124	0x3d73b5ab	0.059499424
125	0xbe254b97	-0.16142116
126	0x3e24d69c	0.16097492
127	0xbc8c4efe	-0.01712751
128	0x3e2ceb5d	0.16886659
129	0x3d6530bc	0.05595468
130	0xbe251428	-0.1612097
131	0xbdf81550	-0.1211344
132	0xbe07fbf8	-0.13279712
133	0x3d12a3bb	0.035800677
134	0xbd302e90	-0.043013155
135	0xbe169f97	-0.14709316
136	0xbe2d0059	-0.16894664
137	0x3db4e8a4	0.08833435
138	0x3e3420d6	0.17590651
139	0x3d6af507	0.057362583
140	0x3e112195	0.14172967
141	0xbe440931	-0.19144131
142	0xbc737b6d	-0.01486097
143	0x3c125f11	0.008933798
144	0xbcfe7c3e	-0.031065103
145	0xbd036edf	-0.032088157
146	0x3d83248c	0.06403455
147	0x3d369846	0.044578813
148	0xbd419e06	-0.047269844
149	0x3e2969c3	0.16544251
150	0x3d840421	0.064461
151	0x3cfb19ba	0.030651916
152	0xbd9d1027	-0.076690964
153	0x3d7f0933	0.062264632
154	0xbdabc03f	-0.083862774
155	0xbe08fd88	-0.13377964
156	0xbd17b7a6	-0.037040375
157	0x3d2a3031	0.041549865
158	0x3daf8021	0.085693605
159	0xbd9ffd6c	-0.07812008
160	0x3d31bff6	0.04339596
161	0x3dc74381	0.09729672
162	0xbc83461d	-0.016024644
163	0xbe1ed843	-0.15512185
164	0xbdeb8bb1	-0.115012534
165	0xbd9924d1	-0.07477725
166	0x3dc01adc	0.09380123
167	0xbd5275c2	-0.051381834
168	0xbda1231a	-0.07868023
169	0x3d24fc08	0.04027942
170	0xbcc06619	-0.023486184
171	0x3cdda811	0.02705768
172	0xbe0584ed	-0.13038988
173	0x3dece82f	0.11567723
174	0xbcaeee9f	-0.021354018
175	0x3d3b1d75	0.04568239
176	0xbbc60a12	-0.006043681
177	0xbda68a2c	-0.08131823
178	0x3cfea4f9	0.031084524
179	0xbbec7cf2	-0.007217043
180	0xbe1d9919	-0.15390433
181	0x3d75a53b	0.05997203
182	0xbe15e6c4	-0.14638811
183	0xbd0e5731	-0.03475112
184	0x3e12d650	0.14339566
185	0xbdc5ea16	-0.09663789
186	0x3d9589c0	0.07301664
187	0x3d2a9293	0.04164369
188	0x3e62cbc8	0.22148049
189	0xbe09a66a	-0.13442388
190	0x3d6fcfb4	0.05854769
191	0xbd2b16d5	-0.04176982
192	0xbccb96dd	-0.02485221
193	0x3ccf5122	0.025307242
194	0xbcb71196	-0.022347253
195	0xbd3498ae	-0.04409092
196	0xbe41a43d	-0.18910308
197	0x3cc083f0	0.023500413
198	0x3d64f62d	0.055898834
199	0xbd3e2cae	-0.04642933
200	0xbd1f6ca5	-0.03892197
201	0x3e000bdb	0.12504523
202	0x3dc12dcc	0.09432563
203	0x3e21044f	0.157243
204	0xbd129010	-0.03578192
205	0xbd100e70	-0.03517002
206	0xbd66a7dd	-0.05631243
207	0x3dac895a	0.08424635
208	0x3c32b794	0.010908026
209	0x3d05c3cc	0.03265743
210	0x3d211678	0.03932807
211	0x3dcbe0b7	0.0995497
212	0xbcc51eaf	-0.024062483
213	0x3d7d2fa8	0.061813027
214	0x3cb41e09	0.021986978
215	0x3bcb1146	0.0061971275
216	0xbe3bf312	-0.18354443
217	0x3daa1d12	0.08306326
218	0xbd4ce724	-0.05002512
219	0xbddd31cd	-0.10800514
220	0x3d274945	0.04084136
221	0x3c685fad	0.014182967
222	0xbca40f13	-0.02002672
223	0xbd8116fc	-0.06303212
224	0x3d9a325f	0.07529139
225	0x3e07aa1d	0.13248487
226	0xbe11f08d	-0.14251919
227	0xbd825094	-0.06363025
228	0xbe1349c8	-0.14383614
229	0x3cddbe5b	0.027068308
230	0xbce18a9c	-0.027531914
231	0x3e4427df	0.19155835
232	0xbd1bce05	-0.038038272
233	0xbc71e0c5	-0.014763062
234	0xbe16ed3e	-0.14738938
235	0xbd250d89	-0.04029611
236	0xbde7907a	-0.113068536
237	0x3c394a54	0.011309225
238	0xbd5dada6	-0.054120682
239	0xbe2f2c81	-0.1710682
240	0xbdbb7870	-0.09153831
241	0x3d09b4e0	0.03361976
242	0xbdbf7807	-0.09349065
243	0xbc60d767	-0.013723231
244	0xbdf0e5e6	-0.117626
245	0xb9429e74	-0.0001856031
246	0xbdfd7297	-0.12375372
247	0xbdcb07ec	-0.0991362
248	0x3e2c8563	0.16847758
249	0x3c1ca1e4	0.009560082
250	0x3e177679	0.14791287
251	0x3dcecbd4	0.10097471
252	0x3e27e523	0.16396002
253	0xbdf024e9	-0.1172579
254	0x3c8b1639	0.01697837
255	0x3cf429a4	0.029805012

lstm.weight_hh_l1 f4 [256, 64]
0	0xbdc9db8d	-0.09856329
1	0x3d04a73e	0.032386057
2	0xbd419ed8	-0.047270626
3	0xbd7aeaa1	-0.061258916
4	0x3cf76107	0.030197633
5	0xbd861cb2	-0.06548442
6	0xbe3b3eec	-0.18285722
7	0xbe032392	-0.12806538
8	0xbd00c00e	-0.031433158
9	0x3ca329e5	0.019917438
10	0x3e5dc8d9	0.21658649
11	0x3d8c84a6	0.06861238
12	0x3e021902	0.12704852
13	0x3ddf81a3	0.10913398
14	0x3e3ae196	0.18250117
15	0x3c95bd79	0.018278824
16	0xbcc5102f	-0.024055569
17	0x3cfc1591	0.030772002
18	0xbe1cee7b	-0.15325348
19	0x3dc5517e	0.09634684
20	0xbdca32a8	-0.09872943
21	0x3d9fe52f	0.07807385
22	0x3d630d62	0.055432685
23	0xbdda1131	-0.1064781
24	0x3e4df66a	0.20113531
25	0xbc31f355	-0.0108612375
26	0x3b8730fa	0.0041257115
27	0x3dcc80d0	0.099855065
28	0x3cbfb4b6	0.0234016
29	0xbe17eb9c	-0.14835972
30	0x3e07d2f4	0.13264066
31	0xbc4c670c	-0.01247574
32	0x3d86b2ce	0.06577073
33	0x3e1c8a89	0.15287222
34	0x3da4e54f	0.0805155
35	0x3e0ec348	0.13941681
36	0xbca74a52	-0.02042118
37	0xbd0da0a9	-0.034577046
38	0x3d663cdd	0.056210387
39	0xbd323b5f	-0.043513652
40	0xbba1db91	-0.0049395044
41	0xbd5da1c9	-0.05410937
42	0x3d965d6b	0.07342037
43	0x3df4dd4c	0.119562715
44	0xbd70f232	-0.058824725
45	0x3d6187d8	0.05506119
46	0xbd1db636	-0.038503848
47	0xbe510ee4	-0.20415837
48	0xbe2fb4e2	-0.17158845
49	0xbe22036b	-0.15821616
50	0x3e14f1b4	0.14545327
51	0xbd933d2a	-0.071894005
52	0x3dc6ed30	0.09713209
53	0xbe1c87c1	-0.15286161
54	0x3cd1cb63	0.025609678
55	0xbe050ba0	-0.12992716
56	0xbd7f1a36	-0.062280856
57	0x3be6047f	0.007019579
58	0x3dbb490f	0.09144794
59	0xbd9cff3b	-0.07665869
60	0xbcbd4968	-0.023106292
61	0xbdf1dd50	-0.1180979
62	0xbd0ee2ea	-0.03488437
63	0xbbab0268	-0.0052187927
64	0xbe59fe42	-0.21288398
65	0x3bb00322	0.005371467
66	0x3cca6865	0.024707982
67	0xbe1ff82c	-0.15622014
68	0x3d4f807f	0.050659653
69	0x3bb27a49	0.0054467064
70	0xbd9d9fea	-0.07696517
71	0xbd901a35	-0.070362486
72	0xbd48fa9e	-0.049067132
73	0x3ca65518	0.020304248
74	0xbc56fb21	-0.013121397
75	0x3e5a4a78	0.2131747
76	0x3d08c67a	0.033392407
77	0x3d4dd50c	0.050252005
78	0x3d267ef3	0.040648412
79	0xbb5a7ea4	-0.0033339644
80	0xbca6ff14	-0.020385303
81	0xbd1e32dc	-0.038622722
82	0xbe59fc73	-0.21287708
83	0x3e1fb6e1	0.15597107
84	0xbcd7384a	-0.026271958
85	0x3d4f76cd	0.050650407
86	0x3de66f68	0.11251718
87	0x3dab810b	0.08374222
88	0x3b577361	0.0032875168
89	0x3cb6bdcd	0.022307301
90	0xbe28dc86	-0.16490373
91	0x3e7bea7b	0.24601166
92	0xbccb6540	-0.024828553
93	0xbe2f5e3c	-0.17125791
94	0xbd8beb2c	-0.06831965
95	0x3e05df98	0.13073575
96	0xbe6df58b	-0.23238198
97	0x3d82f346	0.06394057
98	0x3de6a6b5	0.112622656
99	0x3e2e0ef5	0.16997893
100	0x3c20c11d	0.009811667
101	0xbd6edc15	-0.058315355
102	0x3c1132be	0.008862196
103	0xbc0e8e09	-0.008700856
104	0xbe06146e	-0.13093731
105	0xbe2267a3	-0.15859847
106	0x3dc01237	0.09378474
107	0xbd300db1	-0.042981807
108	0x3d7bc4d1	0.061466996
109	0xbd9376f1	-0.07200421
110	0xbc2f96b7	-0.010717086
111	0xbd043dfb	-0.03228567
112	0xbe5add8b	-0.21373574
113	0xbd807321	-0.06271959
114	0x3e25eb8e	0.16203138
115	0xbd594983	-0.053048622
116	0x3db4c3e5	0.088264264
117	0xbd3fe1dc	-0.046846256
118	0x3e210228	0.15723479
119	0xbd5d426e	-0.05401843
120	0xbd185f9f	-0.037200566
121	0x3e356fe8	0.1771847
122	0x3df929b7	0.121661596
123	0x3dc0a32a	0.09406121
124	0x3d09d304	0.033648506
125	0xbe24d435	-0.16096576
126	0x3c51c7fd	0.012804029
127	0x3d49d9e2	0.049280055
128	0xbe6dfb29	-0.23240341
129	0x3dc821ac	0.097720474
130	0xbc8e1c69	-0.017347531
131	0xbe7b2005	-0.24523933
132	0x3d236864	0.039894477
133	0xbd3d6647	-0.046240117
134	0xbcc18762	-0.023624126
135	0xbdd55077	-0.10415738
136	0xbe0979fd	-0.13425441
137	0xbe3c9aa2	-0.18418363
138	0x3cf9fba8	0.030515507
139	0x3c019f81	0.007911564
140	0x3d32e883	0.04367877
141	0x3c2615a0	0.010136992
142	0x3bbe2f43	0.005803974
143	0xbc38874e	-0.011262728
144	0x3db12588	0.08649737
145	0xbe54c512	-0.20778301
146	0xbd790994	-0.06080015
147	0x3cfd02f4	0.030885197
148	0xbd9a9924	-0.075487405
149	0x3df7ff27	0.12109213
150	0xbda0827b	-0.07837387
151	0x3cfaef59	0.030631708
152	0x3e4d29f1	0.2003553
153	0x3e5756fe	0.21029279
154	0xbd25bc59	-0.040462825
155	0x3e755f15	0.23962052
156	0x3d7495b2	0.059713073
157	0xbe32a477	-0.17445551
158	0xbb09d5ac	-0.00210319
159	0x3c653ecf	0.0139920255
160	0xbd90e8a9	-0.070756264
161	0x3dd04b54	0.10170618
162	0xbd7aa1aa	-0.06118933
163	0xbc77e95b	-0.01513132
164	0xbd3eef92	-0.04661519
165	0xbddaed7c	-0.10689828
166	0x3d972b06	0.07381253
167	0xbddb8c22	-0.107200876
168	0xbddfedb9	-0.10934014
169	0xbe30301e	-0.17205855
170	0x3dd35df1	0.10320652
171	0xbd23ef13	-0.04002292
172	0x3d8b14b1	0.06791056
173	0xbd2cb24a	-0.042162217
174	0xbd8a6f38	-0.067594945
175	0xbd1c24c9	-0.03812102
176	0xbcdb9cb5	-0.026808122
177	0xbda2c810	-0.07948315
178	0xbc00a9bc	-0.007852968
179	0xbcb69aa4	-0.022290535
180	0x3dce090c	0.10060319
181	0xbd135e54	-0.03597863
182	0x3d14efb8	0.036361426
183	0xbd2e19bb	-0.042505007
184	0xbc8f0dc2	-0.017462615
185	0x3e4d17ba	0.20028582
186	0x3cafa402	0.02144051
187	0xbddf0531	-0.10889662
188	0x3d49cba4	0.049266472
189	0xbdb69cdf	-0.089166395
190	0xbbd7f745	-0.006590756
191	0x3dfb45cd	0.12269173
192	0xbe3970c4	-0.18109423
193	0xbdda43ff	-0.106575005
194	0xbdc61b4a	-0.09673174
195	0xbdb4cd3d	-0.088282086
196	0x3d5851c4	0.052812353
197	0x3d05c7ab	0.03266112
198	0xbe0835e8	-0.13301814
199	0xbc2d6e6b	-0.010585408
200	0x3b96a129	0.0045968485
201	0xbbb2d04a	-0.005456959
202	0x3e530a7d	0.2060947
203	0x3e08d525	0.13362558
204	0x3e1f908a	0.15582481
205	0x3d9cd6a9	0.07658131
206	0x3d48aa79	0.0489907
207	0xbda733a7	-0.08164149
208	0x3e119eb0	0.1422069
209	0xbd9ecc7b	-0.07753845
210	0x3c29b4fe	0.010358093
211	0xbd37898a	-0.0448089
212	0xbcebd878	-0.028789744
213	0x3e39867f	0.18117712
214	0xbbc8cc77	-0.0061278897
215	0xbdca68d8	-0.098832786
216	0x3d86ddee	0.065852985
217	0x3e4a7594	0.19771415
218	0xbb6f9991	-0.0036560039
219	0xbca3bad6	-0.019986551
220	0xbd0499ea	-0.032373346
221	0xbe34b4d7	-0.1764711
222	0xbd15afb7	-0.036544528
223	0xbd2a93da	-0.04164491
224	0xbbe4acec	-0.0069786217
225	0x3e18785a	0.1488966
226	0xbcb28d72	-0.021795962
227	0x3e30bafe	0.17258832
228	0x3bd9ffbb	0.0066528
229	0xbe048462	-0.12941125
230	0x3c66a23a	0.014076764
231	0xbd51a153	-0.05117924
232	0xbdd73fad	-0.10510192
233	0xbdc0a704	-0.09406856
234	0x3c4e711c	0.01260021
235	0x3d6dcb95	0.05805548
236	0x398b422f	0.00026561457
237	0x3c4e6ad2	0.01259871
238	0xbdcce94d	-0.10005436
239	0xbe058095	-0.13037331
240	0xbcc8179d	-0.024425322
241	0xbe4f07d6	-0.20217833
242	0x3d8a2d68	0.06746942
243	0xbdfdfa0e	-0.1240121
244	0x3d739c9a	0.05947552
245	0xbd1dcc2c	-0.03852479
246	0x3d7dd11d	0.061967004
247	0xbe32ca23	-0.17459922
248	0xbe3c6a98	-0.18400037
249	0x3e198b83	0.14994626
250	0x3bc0eedf	0.0058878507
251	0x3d823389	0.06357486
252	0x3d8480b9	0.064698644
253	0xbe58a372	-0.211561
254	0x3dc4a2e3	0.09601381
255	0x3dad2e5d	0.08456109

lstm.bias_ih_l1 f4 [256]
0	0x3e3ce6d4	0.18447429
1	0x3d7f24e5	0.062291045
2	0x3c585ff8	0.0132064745
3	0x3e18f142	0.14935783
4	0xbbb66097	-0.0055657136
5	0x3e3392e9	0.1753651
6	0x3e0d8cc6	0.13823232
7	0x3b636615	0.0034698297
8	0xbce7d705	-0.028300771
9	0x3c83eeba	0.016105045
10	0x3d556069	0.052093897
11	0x3d7132ed	0.058886457
12	0xbc63d0d4	-0.013904769
13	0x3d9fbbb2	0.07799472
14	0x3e2c8057	0.16845833
15	0xbc960178	-0.018311247
16	0x3dd6b93d	0.1048455
17	0x3df63a25	0.12022809
18	0xbbb1e3bc	-0.0054287594
19	0x3d8e9479	0.06961913
20	0x3dec659a	0.115428165
21	0x3e3064dc	0.17225975
22	0x3d86d883	0.06584265
23	0x3d5075b2	0.050893493
24	0x3e355bc8	0.17710793
25	0x3e17ba93	0.14817266
26	0xbd204660	-0.039129615
27	0x3d1e890f	0.038704928
28	0x3e1a5877	0.15072809
29	0x3d8c01a8	0.068362534
30	0xbd35f1d3	-0.044420075
31	0x3d80ab1b	0.06282636
32	0x3dcf9885	0.10136513
33	0x3d8f943e	0.07010697
34	0x3e23713e	0.15961167
35	0x3db90927	0.09034949
36	0x3c08dd31	0.008353517
37	0x3d39731d	0.045275796
38	0x3df7ab12	0.12093176
39	0xba4215bf	-0.0007403753
40	0x3e334841	0.17508031
41	0x3b11e15b	0.0022259566
42	0x3dbf3669	0.0933655
43	0x3d42ba95	0.04754122
44	0xbc66f5be	-0.014096675
45	0x3c5d5bb9	0.013510638
46	0xbc0b1c57	-0.008490643
47	0x3e18d2d8	0.1492418
48	0x3e141d0f	0.1446421
49	0x3beaac86	0.0071616797
50	0xbcad7a01	-0.02117634
51	0x3cbf1e46	0.023329865
52	0x3dccff85	0.10009674
53	0x3e089f2b	0.13341968
54	0x3cfd79b4	0.030941822
55	0x3d870204	0.06592181
56	0x3d137199	0.035997007
57	0xbd2b18ea	-0.041771807
58	0x3ddfa563	0.10920217
59	0xbafffec2	-0.001953088
60	0x3e05bd90	0.13060594
61	0x3d53ddab	0.05172507
62	0x3da5e601	0.081005104
63	0xba8f9b93	-0.0010956399
64	0xbc7629b1	-0.015024588
65	0x3ddafa58	0.106922805
66	0x3d9c5a94	0.07634464
67	0x3dcb0550	0.09913123
68	0x3e144ab4	0.14481622
69	0x3e0ccdd3	0.1375039
70	0x3c731b9c	0.014838126
71	0x3d91e22f	0.07123219
72	0x3e22a425	0.15882929
73	0x3da938ff	0.08262824
74	0x3dbe3857	0.0928809
75	0x3d6a9abd	0.057276476
76	0x3e3ad5cb	0.18245618
77	0x3e0233dd	0.12715097
78	0xbd1a3302	-0.0376463
79	0x3d18876e	0.03723853
80	0x3e1c1f86	0.152464
81	0xbc5e50ef	-0.013569101
82	0xbbad57c9	-0.005290006
83	0x3d605a14	0.054773405
84	0x3d89030b	0.066900335
85	0xbbed2440	-0.0072369874
86	0x3e281e53	0.16417818
87	0xbd0da605	-0.034582157
88	0xbd835e0c	-0.064144224
89	0x3db6cf42	0.0892625
90	0xbd81719e	-0.06320499
91	0x3e1600da	0.14648762
92	0x3bf59b45	0.007495316
93	0x3cc26261	0.023728551
94	0x3ddd5bd7	0.10808533
95	0xbd18b1e8	-0.03727904
96	0xbd7ab5d5	-0.061208565
97	0x3c854345	0.016267428
98	0x3df29e3a	0.118465856
99	0xbd508491	-0.050907675
100	0x3dd6b8e9	0.104844876
101	0x3cc6ff41	0.024291636
102	0xbcffef9a	-0.03124218
103	0x3df9217f	0.12164592
104	0x3d97e9a5	0.07417611
105	0xbd2b8faa	-0.041885056
106	0x3db79461	0.08963848
107	0x3d8a1ebb	0.067441426
108	0x3e1100b4	0.14160424
109	0x3e2fcece	0.17168733
110	0x3d2ecd08	0.042676
111	0x3d4ee68c	0.050512835
112	0xbd3cab0c	-0.04606156
113	0x3d63456c	0.055486128
114	0x3e362e71	0.17791153
115	0x3e2f8d45	0.17143734
116	0x3e068ff5	0.13140853
117	0x3d8f2193	0.06988826
118	0x3d21fd22	0.039548047
119	0x3e2a401a	0.16626015
120	0x3da6da19	0.081470676
121	0x3e22d103	0.15900044
122	0x3e26448b	0.16237085
123	0x3df107e9	0.11769087
124	0x3d9c94d4	0.07645574
125	0x3d0fc383	0.035098564
126	0x3dd107ca	0.10206564
127	0x3d8c67a7	0.068557076
128	0xbc7232b9	-0.014782601
129	0x3c6bde61	0.014396281
130	0xbd4c61e2	-0.049898036
131	0xbe4b3b43	-0.19846825
132	0xbd689c20	-0.056789517
133	0xbdca5a55	-0.09880511
134	0xbe187e01	-0.14891817
135	0xbe09147b	-0.13386719
136	0xbe0d926b	-0.13825385
137	0xbd291aa6	-0.04128518
138	0x3d8bd581	0.06827832
139	0xbcbf250f	-0.0233331
140	0x3e0e7b96	0.13914332
141	0xbcf3968e	-0.029734876
142	0x3dbe3a8b	0.0928851
143	0xbc265160	-0.010151237
144	0xbd1d58be	-0.03841471
145	0xbe2dcb25	-0.16972025
146	0xbe090b0f	-0.13383125
147	0x3de84d34	0.1134285
148	0x3dbb2dfe	0.09139632
149	0x3d5b882b	0.053596657
150	0xbdd56bf1	-0.10420979
151	0xbdf01f39	-0.11724705
152	0xbce195cd	-0.02753725
153	0x3da6d9c5	0.08147005
154	0xbda861a5	-0.08221749
155	0xbc869666	-0.016429137
156	0x3d6c15be	0.057637922
157	0xbd32e392	-0.04367406
158	0xbcdfa671	-0.027301045
159	0x3dae30a4	0.08505371
160	0x3daf51aa	0.08560498
161	0x3e0a0000	0.13476562
162	0x3c9a2ae9	0.01881929
163	0x3dfd89ea	0.12379821
164	0xbe44e031	-0.19226147
165	0xbe369de7	-0.17833672
166	0x3d87fcb1	0.06639994
167	0xbdf59b3d	-0.119925
168	0x3db227ee	0.08699022
169	0xbe4016a5	-0.18758638
170	0xbd048d70	-0.032361448
171	0xbdbdbe7f	-0.0926485
172	0x3d4a098a	0.049325503
173	0x3d0389bb	0.032113772
174	0x3c538e12	0.01291229
175	0xbd62749a	-0.05528698
176	0xbde0215d	-0.109438635
177	0xbd6bc281	-0.05755854
178	0x3df8b098	0.121430576
179	0xbdd6da60	-0.104908705
180	0xbd251d36	-0.04031106
181	0xbce128aa	-0.02748521
182	0x3e069051	0.1314099
183	0x3c63aabb	0.013895686
184	0xbdc16194	-0.0944244
185	0xbd969fd4	-0.073547035
186	0x3deb7cf6	0.11498444
187	0xbdbaf269	-0.09128267
188	0x3dcfa915	0.10139672
189	0xbc0bedc5	-0.008540575
190	0x3d8d0446	0.06885581
191	0x3d2b93ab	0.041888874
192	0x3d4f655a	0.050633766
193	0x3df84f5a	0.1212451
194	0x3e3f715d	0.18695588
195	0x3d9f09ea	0.07765563
196	0x3d9a3efd	0.07531545
197	0x3d885557	0.06656902
198	0x3adebeea	0.0016994153
199	0x3cf2b3d1	0.029626759
200	0x3da67450	0.081276536
201	0x3e44666a	0.19179693
202	0x3c19b527	0.009381569
203	0x3de843e5	0.11341075
204	0x3e19cb8c	0.15019053
205	0x3dfd98fd	0.12382696
206	0x3e339f45	0.17541225
207	0x3e474fbd	0.19464011
208	0x3d85ab06	0.06526761
209	0x3e44a2f8	0.19202793
210	0x3e3614e1	0.17781402
211	0x3e1ba176	0.15198311
212	0x3d311be3	0.043239485
213	0x3b9dc972	0.004815274
214	0x3e53dfe2	0.20690873
215	0x3bb1616e	0.005413226
216	0x3e025467	0.1272751
217	0x3d90f375	0.07077686
218	0x3e40718f	0.18793319
219	0x3d29a115	0.041413385
220	0x3ddae8d0	0.10688937
221	0x3e15cd53	0.14629106
222	0x3d1f24ae	0.03885334
223	0x3cc1d08b	0.023659011
224	0x3e42314c	0.18964118
225	0x3e2dc5d0	0.1696999
226	0x3d76e650	0.060278237
227	0x3d8ebb3b	0.06969305
228	0xbd23e26e	-0.040010862
229	0xbcfa9e6e	-0.030593123
230	0x3e3b09c1	0.1826544
231	0x3e00b80e	0.12570211
232	0xbd0ab172	-0.03386063
233	0x3bdbf471	0.0067124893
234	0x3e46c50a	0.19411102
235	0x3e208941	0.15677358
236	0x3e2fe454	0.17176944
237	0x3d824208	0.06360251
238	0x3c4151d2	0.011799293
239	0xbd0fc543	-0.035100233
240	0x3e2ae029	0.16687073
241	0x3d897e6b	0.067135654
242	0x3e48aea3	0.19597869
243	0x3e39543a	0.18098536
244	0x3d62372c	0.055228397
245	0x3dbec637	0.0931515
246	0x3cd19efd	0.025588507
247	0x3e2d482e	0.16922066
248	0xbcd77639	-0.02630149
249	0x3e0d0239	0.13770379
250	0x3e22e0bb	0.1590604
251	0x3e3d7a55	0.18503697
252	0x3dbcff06	0.09228329
253	0x3de5d75c	0.11222717
254	0xbce181ea	-0.027527768
255	0x3d4fa453	0.05069382
